…
93000
94000
95000
96000
97000
98000
99000
100000
101000
102000
103000
104000
105000
106000
107000
108000
109000
110000
111000
112000
113000
114000
115000
116000
117000
118000
119000
120000
121000
122000
123000
124000
125000
126000
127000
128000
129000
130000
131000
132000
133000
134000
135000
136000
137000
138000
[2K	Model created
[2K	Weights loaded
Model: "sequential"
_________________________________________________________________
 Layer (type)                Output Shape              Param #   
=================================================================
 conv1d (Conv1D)             (None, 35, 100)           8500      
                                                                 
 dropout (Dropout)           (None, 35, 100)           0         
                                                                 
 conv1d_1 (Conv1D)           (None, 34, 100)           20100     
                                                                 
 dropout_1 (Dropout)         (None, 34, 100)           0         
                                                                 
 attention (attention)       (None, 34, 100)           134       
                                                                 
 bidirectional (Bidirectiona  (None, 34, 200)          160800    
 l)                                                              
                                                                 
 bidirectional_1 (Bidirectio  (None, 200)              240800    
 nal)                                                            
                                                                 
 dense (Dense)               (None, 2)                 402       
                                                                 
=================================================================
Total params: 430,736
Trainable params: 430,736
Non-trainable params: 0
_________________________________________________________________
Model summary: None
   1/4341 [..............................] - ETA: 1:56:31
…
