…
842000
843000
844000
845000
846000
847000
848000
849000
850000
851000
852000
853000
854000
855000
856000
857000
858000
859000
860000
861000
862000
863000
864000
865000
866000
867000
868000
869000
870000
871000
872000
873000
874000
875000
876000
877000
878000
879000
880000
881000
882000
883000
884000
885000
886000
[2K	Model created
[2K	Weights loaded
Model: "sequential"
_________________________________________________________________
 Layer (type)                Output Shape              Param #   
=================================================================
 conv1d (Conv1D)             (None, 35, 100)           8500      
                                                                 
 dropout (Dropout)           (None, 35, 100)           0         
                                                                 
 conv1d_1 (Conv1D)           (None, 34, 100)           20100     
                                                                 
 dropout_1 (Dropout)         (None, 34, 100)           0         
                                                                 
 attention (attention)       (None, 34, 100)           134       
                                                                 
 bidirectional (Bidirectiona  (None, 34, 200)          160800    
 l)                                                              
                                                                 
 bidirectional_1 (Bidirectio  (None, 200)              240800    
 nal)                                                            
                                                                 
 dense (Dense)               (None, 2)                 402       
                                                                 
=================================================================
Total params: 430,736
Trainable params: 430,736
Non-trainable params: 0
_________________________________________________________________
Model summary: None
    1/27718 [..............................] - ETA: 19:30:06
…
