…
DONE GETTING IUPRED, 107.09s elapsed

RUNNING PADDLE
DONE RUNNING PADDLE, 167.47s elapsed

RUNNING ADPRED
DONE RUNNING ADPRED, 275.66s elapsed

Global seed set to 0
RUNNING ADHUNTER
DONE RUNNING ADHUNTER, 321.31s elapsed

RUNNING TADA
0
1000
2000
3000
4000
5000
6000
7000
8000
9000
10000
11000
12000
13000
14000
15000
16000
17000
18000
19000
[2K	Model created
[2K	Weights loaded
Model: "sequential"
_________________________________________________________________
 Layer (type)                Output Shape              Param #   
=================================================================
 conv1d (Conv1D)             (None, 35, 100)           8500      
                                                                 
 dropout_2 (Dropout)         (None, 35, 100)           0         
                                                                 
 conv1d_1 (Conv1D)           (None, 34, 100)           20100     
                                                                 
 dropout_3 (Dropout)         (None, 34, 100)           0         
                                                                 
 attention (attention)       (None, 34, 100)           134       
                                                                 
 bidirectional (Bidirectiona  (None, 34, 200)          160800    
 l)                                                              
                                                                 
 bidirectional_1 (Bidirectio  (None, 200)              240800    
 nal)                                                            
                                                                 
 dense_3 (Dense)             (None, 2)                 402       
                                                                 
=================================================================
Total params: 430,736
Trainable params: 430,736
Non-trainable params: 0
_________________________________________________________________
Model summary: None
  1/606 [..............................] - ETA: 14:48
…
